…
data":{"colab":{"base_uri":"https://localhost:8080/"},"executionInfo":{"elapsed":320,"status":"ok","timestamp":1660234557155,"user":{"displayName":"배주화","userId":"05942449316284114919"},"user_tz":-540},"id":"HarurybCgp4c","outputId":"b5309690-a55d-4f69-c62e-e86feac686e0"},"outputs":[{"output_type":"stream","name":"stdout","text":["Model: \"sequential_2\"\n","_________________________________________________________________\n"," Layer (type)                Output Shape              Param #   \n","=================================================================\n"," flatten_2 (Flatten)         (None, 784)               0         \n","                                                                 \n"," dense_6 (Dense)             (None, 1256)              985960    \n","                                                                 \n"," dense_7 (Dense)             (None, 512)               643584    \n","                                                                 \n"," dense_8 (Dense)             (None, 256)               131328    \n","                                                                 \n"," dense_9 (Dense)             (None, 128)               32896     \n","                                                                 \n"," dense_10 (Dense)            (None, 64)                8256      \n","                                                                 \n"," dense_11 (Dense)            (None, 10)                650       \n","                                                                 \n","=================================================================\n","Total params: 1,802,674\n","Trainable params: 1,802,674\n","Non-trainable params: 0\n","_________________________________________________________________\n"]}],"source":["# 은닉층 추가\n","#    keras.layers.Dense(1256, activation='relu'),\n","#    keras
…
